model.pth (torch, 636359 bytes, 24 tensors)

weight f4 [16, 1, 3]
000000 d4 72 07 bf 63 50 34 3e 90 9f 24 3e 68 77 41 3e
       -0.5290959 0.1760879 0.16076493 0.18893206
000010 8f b2 b4 3e 33 28 0e be ef 3b d8 be 1a 88 15 3e
       0.3529248 -0.13882522 -0.42233226 0.146027
000020 00 29 4b be 36 58 33 be 6d 4a 81 be 8e dd dd 3e
       -0.19839859 -0.17514119 -0.25252095 0.43333095
000030 28 51 c6 3e 80 c1 af 3e ce 91 b4 3d 63 ce 0e 3e
       0.38733792 0.34327316 0.088168725 0.13945918
000040 6a eb 56 bd ea 8a 99 be 38 e3 05 3f b2 ee eb be
       -0.052470602 -0.29988796 0.52299833 -0.46080548
000050 df 92 4c 3d ed bd 77 3e 57 bd 4c be 63 05 46 3c
       0.049944755 0.24193545 -0.19994102 0.012086245
000060 e7 33 07 bf 20 c3 7d 3e b5 33 ac be 07 f1 03 3f
       -0.5281357 0.24781466 -0.336332 0.51539654
000070 4f 97 f3 be f2 cb 3f 3e aa c1 84 3e cf 94 73 be
       -0.47576377 0.18730143 0.25929004 -0.23787235
000080 3d c0 83 3e 2b 85 98 be 85 b0 5c 3d c6 23 53 3e
       0.25732604 -0.297891 0.05387928 0.20619115
000090 c6 ae ad bd 93 0b 3d be 5d 37 7d be a0 67 07 3f
       -0.08480601 -0.18461446 -0.2472815 0.52892494
0000a0 ab 34 ab be d9 35 4e bd 37 58 d5 be 09 e9 8f be
       -0.3343862 -0.050344322 -0.41668865 -0.2810748
0000b0 d4 84 f5 bc 23 b9 be 3e 60 55 05 3f 8b 27 f2 3e
       -0.029970564 0.37250623 0.52083397 0.47295794

bias f4 [16]
000000 71 83 ef be 42 98 cc 3e a3 e0 0e 3d 41 c2 94 3e
       -0.4677997 0.39959913 0.0348822 0.29054454
000010 b4 96 f8 3e 29 b2 88 3d 38 1d 02 bf 85 1d fb 3d
       0.48552477 0.06674606 -0.50825834 0.1226149
000020 b7 59 8b 3e 86 02 8a be ea 82 74 3b 3b 55 c8 be
       0.27216884 -0.2695505 0.0037309476 -0.39127526
000030 f5 72 da be ea 07 5c 3e 50 67 e1 be fe 1c ad be
       -0.4266583 0.21487394 -0.44024134 -0.33811182

weight f4 [32, 16, 3]
000000 21 e0 1a 3c 65 09 ac 3d d8 c1 a0 3d 8d aa d5 bd
       0.009452851 0.08400229 0.07849473 -0.104329206
000010 72 45 7a bc 45 23 32 3c 92 59 d5 bd d7 3d e4 3d
       -0.015275346 0.010872667 -0.10417475 0.111446075
000020 e9 b6 8e 3d 26 1a 11 be c2 33 81 bd a3 c4 c4 3c
       0.06968481 -0.14170131 -0.063087 0.024019545
000030 00 2b 13 3e 5c 3e 29 3d f8 5e 2f bd c3 67 d7 3c
       0.14371872 0.041319236 -0.04281518 0.026294595
000040 78 3c 3b be 8d b2 2a 3c de 87 9c bd 27 c8 8a 3d
       -0.18284786 0.010418546 -0.07643102 0.06776457
000050 d1 65 06 3d ce bd 18 b9 c6 d0 7a 3d b7 9b ce bc
       0.032811943 -0.00014566557 0.061234258 -0.025220735
000060 ba 6d f8 3d 43 6f 0d bd 0e ff da bd c7 b0 db bd
       0.12130304 -0.034529936 -0.10693179 -0.10727077
000070 8e ff 2f 3d 3d 1e 7a 3d 32 41 a6 3d 66 69 04 3e
       0.042968325 0.061063994 0.08117904 0.12930831
000080 d9 50 17 3e 45 c5 48 bc c9 14 ad 3d b9 d4 d3 bd
       0.14776935 -0.012254064 0.0845123 -0.10343308
000090 94 d9 0b 3d 86 73 72 3c 64 65 10 be ec 7f 40 bd
       0.034143046 0.014798051 -0.14101177 -0.046996996
0000a0 a2 37 ab 3d 1b 9a 40 3d b2 ee 1d bd c6 de 82 3d
       0.083602205 0.047021966 -0.038557716 0.06390147
0000b0 3e 80 4d bd db cd 55 bc 63 8c ea bd 6b 64 f2 3d
       -0.05017113 -0.013049568 -0.11452558 0.118355595
0000c0 c2 8e 23 bd c7 3a 0a bd 59 4a 03 3e da ec 81 3d
       -0.039931066 -0.03374746 0.1282133 0.06344004
0000d0 a9 55 7a bc 17 1a 91 bd 6e b1 b4 bd 1e 57 f4 3d
       -0.015279212 -0.07085054 -0.088229045 0.11930679
0000e0 c6 9a 1e 3d 2e ef e6 3d e8 fd 1d 3d 8e 51 af 3d
       0.038721822 0.11276089 0.038572222 0.08560477
0000f0 ef 96 0d be 5f 4b dc 3c 53 47 d2 bd 7f c2 b8 3d
       -0.13827108 0.026891408 -0.1026751 0.09021472
000100 64 75 04 be 50 12 29 3d 14 97 23 3c bc f5 8f bc
       -0.12935406 0.04127723 0.00998475 -0.01757323
000110 11 2e ab 3d 72 50 e8 3d 03 70 ed 3d 1d 03 f8 3d
       0.08358396 0.11343469 0.1159363 0.12109969
000120 20 0d d1 bd 24 09 cc bd d4 98 0a be 0b 03 85 3d
       -0.102075815 -0.09962681 -0.13534862 0.06494721
000130 56 83 23 3e 9d 9e ac bd 12 5d d1 3c c1 b0 03 3e
       0.1596807 -0.084286906 0.025557075 0.12860395
000140 1d 42 b5 bd c8 97 d0 3d 88 69 c6 3d 48 d1 cd bd
       -0.08850501 0.101852 0.09688097 -0.10049683
000150 a5 ce 13 3d b7 b0 f3 3b 6f 4a dd 3d 55 0f eb bd
       0.036085743 0.0074368375 0.10805213 -0.11477534
000160 d6 72 83 bd bc a1 d3 bc 3e b7 fd 3d f8 df 0f 3b
       -0.064183876 -0.025833957 0.12388466 0.0021953564
000170 f5 bf 91 bc 99 a5 2f bb 0e a4 d0 3d 7f 5f 96 bd
       -0.017791728 -0.0026801585 0.10187541 -0.07342433
000180 ec e1 cb 3d d8 cc c0 bd 38 37 9c 3d cb 1a ce 3c
       0.099552006 -0.09414071 0.0762772 0.02515926
000190 a1 cb fe bd be 90 e9 bd d3 08 bc bd 35 25 c1 bd
       -0.12441183 -0.114045605 -0.091813706 -0.09430925
0001a0 ab 8e e3 bd 30 45 3e 3d 73 ac 92 ba f2 a2 18 3e
       -0.11111196 0.0464527 -0.001119031 0.14905909
0001b0 fd 46 c6 3d cc 12 b8 3d 44 e4 eb bd 05 fb 1c bd
       0.09681509 0.0898796 -0.115181476 -0.03832533
0001c0 be 53 48 3d 5d 1d c6 bd 3f 49 e5 3d 0a 69 a1 bd
       0.048907988 -0.09673569 0.11195611 -0.07881363
0001d0 a9 2d c2 bc 48 b5 0b be a7 c9 17 bd de 61 dd 3d
       -0.023703413 -0.13643372 -0.037057545 0.10809682
0001e0 c6 ae 25 3c 1e 8d ea bd da 36 0f 3e 01 60 c3 3d
       0.01011247 -0.11452697 0.13985768 0.09539796
0001f0 3f 6f 12 be 1f 8c a8 3c 1d 81 fa 3c d9 67 dd 3d
       -0.1430025 0.020574627 0.030579144 0.10810823
000200 47 bf fd 3d a8 c8 bf 3d 79 2d dc 3c 79 c9 7c bd
       0.12389999 0.09364444 0.026877152 -0.061715577
000210 ec 68 0e bb a6 36 be bd 39 d8 88 bd 86 50 3d bd
       -0.0021730019 -0.09287767 -0.06681866 -0.04621937
000220 f3 5a 95 bd 53 91 13 bd 31 5f 0c be 7d b0 8c bc
       -0.07292738 -0.036027264 -0.13708188 -0.017174
000230 78 ce 97 bc 4e 2c 07 3c 8f e8 71 bd 57 3b 0d bd
       -0.01853107 0.008250309 -0.059059676 -0.03448042
000240 c5 a9 05 be b7 ea 99 bd a5 7b bc 3d 88 59 a9 bd
       -0.13053043 -0.075154714 0.09203271 -0.0826903
000250 38 f2 e2 bd b1 49 19 be b0 00 77 3c 05 4e d5 3d
       -0.11081356 -0.14969517 0.0150758475 0.10415272
000260 a4 b4 31 bd 37 1a 25 3e b1 72 28 3d 30 83 8e 3d
       -0.043385163 0.16123281 0.041125003 0.06958616
000270 e8 d7 21 3d ec 91 f2 3c 37 de 3a 3d 7f 92 94 bd
       0.039512545 0.029610597 0.045622077 -0.072545044
000280 15 1b 73 bc cd 6c 4d bd d2 1d 94 3d 59 c3 fe bd
       -0.014838 -0.05015259 0.0723225 -0.12439603
000290 80 04 a0 bd 01 f0 c6 bd 26 e4 6d bc 4c f7 00 be
       -0.07813358 -0.09713746 -0.014519727 -0.12594336
0002a0 d3 1c e3 bd 24 75 08 be f3 8a 25 be e2 f5 9a bd
       -0.11089482 -0.13325936 -0.16166286 -0.0756643
0002b0 e0 c4 46 bd 83 e1 b6 3d a4 67 f1 3d eb f9 0e 3e
       -0.0485276 0.08929732 0.11787346 0.13962524
0002c0 b3 5a 38 3d a9 8d 68 bc 63 54 e5 bc 32 72 ef 3d
       0.045008373 -0.014193931 -0.02799434 0.11691703
0002d0 e3 3e a6 bd 9f 97 94 3c c0 5b a6 3d b3 ad 05 bd
       -0.081174634 0.018138705 0.08122969 -0.032636356
0002e0 0e 5d ef 3d 38 92 0b bd f9 17 07 3e 6e 2d 97 bd
       0.11687671 -0.034074992 0.13192739 -0.07381712
0002f0 a0 29 85 bc a7 6d fc bd 17 60 a7 bc 5a cb df bc
       -0.0162552 -0.12325602 -0.020431561 -0.027318645
000300 cd ab 8e bd 3e 4a a0 bd 4a 01 49 3e 3c dc 61 bd
       -0.06966362 -0.078266606 0.19629398 -0.055141672
000310 ef 6c 53 bd 6a 69 7b bd b8 77 ea bc ec 8d 72 bd
       -0.05161756 -0.061379828 -0.02862154 -0.05921738
000320 ed 01 97 bd 90 07 78 3d 13 c8 82 3d 47 c8 65 bd
       -0.07373414 0.060554087 0.063858174 -0.056099202
000330 34 64 a2 3c 65 b6 9b 3d 76 5e d6 bd 3c be 82 bd
       0.019823171 0.07603148 -0.10467236 -0.063839406
000340 54 f9 79 3d ae 27 52 3d fe e6 b5 bd 1f 63 f0 bd
       0.061028793 0.051307373 -0.08881949 -0.11737656
000350 a3 17 ad 3d a2 79 12 be 2f 6e 09 3b 90 3d c8 bd
       0.08451774 -0.14304212 0.0020970216 -0.09777367
000360 90 dd f5 3d e6 2a a3 bd 3d 31 89 3d e4 07 fb 3d
       0.1200515 -0.079671666 0.066988446 0.122573644
000370 40 f6 9c bd fa 58 61 bc 1a 24 e7 bd 74 60 36 be
       -0.07664156 -0.013754124 -0.11286183 -0.17810231
000380 bf 9c e6 3d 54 a1 18 3e 47 1c 0c bd 0a 94 68 bd
       0.11260366 0.14905292 -0.034206655 -0.056781806
000390 72 cf 05 be 0b 88 3f be d2 b4 6e be 12 08 2f be
       -0.13067415 -0.1870424 -0.23311165 -0.17092922
0003a0 67 b3 ef 3c f9 25 25 bd 53 4e 01 be c8 b2 99 3d
       0.02926035 -0.040319417 -0.12627535 0.07504803
0003b0 b8 8e 18 be e7 eb 01 3e 1e 44 f7 bd 21 4c 8a 3d
       -0.14898193 0.12687646 -0.12073539 0.06752802
0003c0 41 d1 a4 bd 1f cd a4 bd 31 78 03 be 63 0f 88 3d
       -0.080477245 -0.08046936 -0.12838818 0.0664356
0003d0 40 77 f6 bd 8b b4 95 3d 34 8b eb bc 27 70 d0 3d
       -0.12034464 0.073098265 -0.0287529 0.10177641
0003e0 16 f6 0e 3d 1d b7 b1 3d 4b 08 5d bc b9 29 26 3e
       0.034902655 0.08677504 -0.013490747 0.16226853
0003f0 8d a6 2d 3d 9f dd dc 3d 96 03 05 3d fc ca 1e be
       0.042395163 0.10784458 0.032474123 -0.1550712

bias f4 [32]
000000 30 53 09 3b 35 05 00 3e 38 ea 02 bd c0 95 2d bc
       0.0020954125 0.12501986 -0.03196165 -0.010594785
000010 60 ab 63 3c af d5 eb 3c 1f 5b 98 3d 76 ad 44 bc
       0.013895839 0.028788416 0.07439255 -0.012004247
000020 ba 90 14 be 66 8d e6 bd ce 23 03 be e2 1b aa 3c
       -0.14508334 -0.11257438 -0.12806627 0.020765249
000030 61 5d 23 3c 06 06 7b 3d 38 a7 dc bd a3 ea 56 3d
       0.009970994 0.06128504 -0.10774082 0.05246986
000040 ca 05 7f 3d 9b f2 d8 3d 25 0a 5f bd ec c3 82 3d
       0.06226138 0.10593148 -0.054453034 0.063850254
000050 83 68 96 3c 47 79 ad bd 8a 59 10 3d a9 e5 39 3d
       0.018360382 -0.084703974 0.03524164 0.045385037
000060 0d 28 03 3d 39 9c 82 bd 94 18 02 be 74 ca 95 bd
       0.032020617 -0.06377453 -0.12704688 -0.073140055
000070 74 ea 40 bd 99 43 34 bd 2c f6 5e 3d 65 1d 12 3e
       -0.047098592 -0.04400978 0.054433987 0.14269026

weight f4 [64, 32, 3]
000000 07 e8 0c 3d 8c 4c a3 bd ee 06 f1 ba 24 43 4a bd
       0.034400966 -0.079735845 -0.0018388906 -0.049380437
000010 22 62 82 bd 54 fa 4f 3d af 81 db 3c 3b 87 5e 3d
       -0.063663736 0.05077584 0.026795236 0.054328185
000020 a5 0a 2e bd 0a 9b 90 3d 0f 51 31 bd de a0 97 bd
       -0.04249062 0.07060821 -0.043290194 -0.0740373
000030 e1 71 d3 bc de 3d 98 bd 30 b3 16 bc 32 d9 ce 3d
       -0.025811138 -0.07433675 -0.009197995 0.101000205
000040 11 8c c7 bd 86 c5 b5 bc 68 46 a3 bc d2 b9 52 3d
       -0.097435124 -0.022188913 -0.019931033 0.051446743
000050 79 53 a4 bb 89 60 81 3d ab 2d ea 3d 6b 0c 8b bd
       -0.0050148335 0.06317241 0.11434492 -0.06789478
000060 2d 51 0c 3e 16 e0 05 3c d8 c8 2a bd 19 1f a2 bd
       0.13702841 0.008171102 -0.041695446 -0.07916088
000070 cc 2e 3e 3b 35 e5 8c 3d 22 2f be 3d cb e2 f0 bb
       0.0029019592 0.06879655 0.092863336 -0.0073512546
000080 2d e3 04 be e7 c8 e3 bd 20 28 81 bd da ef 9a bd
       -0.12977286 -0.111223035 -0.06306481 -0.07565279
000090 dc 89 cc 3d 0b 04 5e 3d 59 33 7c bd c2 08 cd 3b
       0.09987232 0.054203074 -0.061572406 0.0062571475
0000a0 96 d9 1c 3d 7c 63 47 3d 29 73 81 bd f8 53 12 be
       0.038293444 0.04867886 -0.06320793 -0.14289844
0000b0 02 8b 23 bd 44 8a a1 3d 0f 52 81 bd 62 74 0a be
       -0.03992749 0.078877 -0.063144796 -0.13520959
0000c0 2f 09 04 3d 68 1b 9e 3d 22 f4 d8 bd d9 b6 79 bc
       0.03223532 0.07720071 -0.1059344 -0.015241348
0000d0 65 48 de 3b b5 db 82 3d 64 cf 3e bd c7 97 bf bd
       0.0067835324 0.06389562 -0.0465845 -0.09355121
0000e0 3f 2d c3 bd 96 7b 15 bd e3 1e 05 be b1 23 ef 3d
       -0.095301144 -0.036494814 -0.13000064 0.116767295
0000f0 ea 1b f1 3b e9 73 7b 3d d2 a2 f6 3d e5 66 49 3d
       0.007358064 0.061389837 0.12042774 0.049170393
000100 3d 2b 49 bc 5b 8e 9f 3b c7 09 dd bd fa 48 9f 3d
       -0.012278375 0.004869265 -0.107928805 0.07777591
000110 b2 4b 23 bd 51 83 a3 3c 0a 78 7e 3c 6c bd a6 bd
       -0.03986711 0.019960077 0.015531549 -0.08141598
000120 38 99 35 3d f3 9d 88 bd 4e ce 71 3b 9b c9 85 bd
       0.044335574 -0.066707514 0.0036896649 -0.06532594
000130 29 ab 1a bd e2 26 6a bd 4f 60 99 3b 61 64 91 3d
       -0.037760887 -0.057165988 0.0046806703 0.07099224
000140 25 9f 52 bd c3 5e da 3d 04 84 ac bc b9 49 12 bd
       -0.051421303 0.106626056 -0.021059044 -0.03571484
000150 36 cf a6 bd c6 0d 06 3d 5a 72 85 bd 20 ad 18 3a
       -0.08144991 0.03272798 -0.065159515 0.00058241375
000160 53 99 85 bd 5b 00 74 3d ed ee c0 bb e6 ae 0e be
       -0.06523385 0.05957065 -0.005887857 -0.13933906
000170 99 82 54 bd 0a 8c 85 3d 06 44 01 be e9 8f 71 3d
       -0.05188236 0.06520851 -0.12623605 0.058975134
000180 01 6e 1d bc bf 04 87 3d 09 ce 8a 3c 5c cd 83 3d
       -0.0096087465 0.06592702 0.016943948 0.064356536
000190 e1 18 14 bd 2b c4 bd 3c 84 f7 a5 bd 1b 58 bb 3d
       -0.03615654 0.02316483 -0.081038505 0.09147664
0001a0 1d 6b ca bc fd 4a df bc 46 4e ce bd 78 7e e1 3d
       -0.024709279 -0.027257437 -0.10073523 0.1101045
0001b0 39 55 b3 bd 94 15 88 bd 67 a5 38 bd 03 a6 35 bd
       -0.08756489 -0.06644741 -0.045079615 -0.044347774
0001c0 dd 12 3c be 61 98 72 bd ab 5f 9a bd 18 7b 6d 3d
       -0.18366571 -0.05922735 -0.075377785 0.05797872
0001d0 15 e3 ae 3d 00 b9 18 bc 67 14 64 bd c8 d0 ed bd
       0.08539406 -0.009321451 -0.05568352 -0.116120875
0001e0 23 fc 6e bd 8c 94 ae 3d 49 8b 12 bd bc 7d 8f bc
       -0.058345925 0.08524427 -0.035777364 -0.01751601
0001f0 e4 8f a9 bd 87 b5 8b 3d 7a 69 04 be fe 77 94 3a
       -0.08279398 0.06821733 -0.12930861 0.0011327264
000200 fd dd 16 bc 5d ec 45 3d 71 07 1b 3d 80 72 07 bd
       -0.0092082 0.048321117 0.037848894 -0.03306818
000210 89 37 ca bd 6d 2b 46 3d 58 eb a4 3d f2 ea 8f bd
       -0.09873874 0.048381258 0.08052701 -0.07027234
000220 30 05 9f bd 15 41 99 bd b9 8e 8c 3d fa 64 ab 3a
       -0.07764661 -0.074831165 0.0686316 0.0013076358
000230 f5 ca 21 bd 38 86 8d 3d 37 dd 28 3d 9b b7 ed bb
       -0.039500196 0.06910366 0.041226592 -0.0072545535
000240 a2 41 6d 3d d1 b9 28 bc 77 a3 b8 bd 34 c8 a2 bd
       0.05792392 -0.010298208 -0.090155534 -0.07948342
000250 87 18 d1 bb 69 10 d9 bc e0 7f 57 bd 8d fe 21 3d
       -0.0063810977 -0.026497083 -0.052612185 0.0395494
000260 fd 83 b4 bd 1b dc 82 3d 7c ab 78 bd 7f c6 81 bd
       -0.08814237 0.06389638 -0.060710415 -0.06336688
000270 a4 dc 0a bd 5e 10 98 3c 7a d7 32 bd 58 6c e8 bd
       -0.033901826 0.018562492 -0.043662526 -0.1134879
000280 4f 59 b0 bc c4 5c ff 3d c8 d7 2d bd c7 07 eb bd
       -0.02152696 0.124688655 -0.042442113 -0.11476093
000290 80 ae ec 3d 9e 98 1d bd 2d d6 82 3d 1d c0 8d 3d
       0.11556721 -0.038475625 0.06388507 0.06921408
0002a0 54 37 17 3d d0 d7 d5 3d 3b 8a 02 3e 39 01 29 bb
       0.036918 0.104415536 0.12748043 -0.0025788082
0002b0 c9 cf aa 3c f4 86 a3 bd c5 3a d8 3c 7a 8b 8a bc
       0.020851033 -0.07984725 0.026395211 -0.01691221
0002c0 ff f8 67 3d c1 89 03 3e c9 51 9e bd 0b fe 8b bd
       0.056633946 0.12845518 -0.07730443 -0.06835564
0002d0 0d ce 68 3c 71 d9 d5 3c 0e ef ea bc 4b 86 e1 3d
       0.014209283 0.02610466 -0.028678443 0.110119425
0002e0 ee 0d 02 be 62 69 67 bd 2b 7a a2 3d 10 1b fd bc
       -0.12700626 -0.056496985 0.07933458 -0.030896693
0002f0 ab 24 16 3d 5d e2 cb bd e9 55 a0 3c 77 bd 4c bd
       0.036656063 -0.09955285 0.019572215 -0.049985375
000300 12 c0 87 bd e5 d1 cb bb ce 95 9b bd e9 94 d2 3d
       -0.066284314 -0.0062200897 -0.07596932 0.102823086
000310 03 69 eb bd 13 c1 c8 bd c5 93 0f be ff fe 0f bd
       -0.11494639 -0.09802451 -0.14021213 -0.035155293
000320 ff 26 c9 bd f5 7a b6 bc 22 9e d2 3c a4 a1 39 bd
       -0.09821891 -0.022275427 0.02571017 -0.04532017
000330 0a 74 a1 bd 10 ac 75 bc 18 b8 f6 bd 24 ec 27 3d
       -0.07883461 -0.014994636 -0.12046832 0.040996686
000340 21 bb e3 3b 93 58 d4 3d 5f 64 dd 3d 29 7d d8 3d
       0.0069497977 0.10368457 0.1081016 0.105707474
000350 b0 bd 83 bd 1d 21 1f bd cd 2a d8 bc d1 6d b0 3d
       -0.064326644 -0.03884994 -0.026387597 0.08614696
000360 f0 3b 44 3d 58 03 d7 3a bf c4 c2 bd c0 56 c8 3d
       0.047908723 0.0016404195 -0.095101826 0.09782171
000370 20 e4 63 bd 66 67 f6 3b 04 cd 83 3d 11 12 54 bd
       -0.05563748 0.0075196503 0.06435588 -0.051775042
000380 3e ad e2 bd 57 cb b1 3c 40 9f d5 bc 71 34 50 3c
       -0.110681996 0.021703405 -0.026076913 0.0127078155
000390 46 f7 16 bc 57 c8 c1 3d 6e ba d6 bc d0 22 74 3d
       -0.009214228 0.0946204 -0.026211943 0.059603512
0003a0 bd 31 41 bd 91 67 d3 bd fb 10 de bc de c5 8a 3d
       -0.047166575 -0.10322488 -0.027107706 0.067760214
0003b0 fd ac 53 bd d0 6d 9d bd 08 44 94 3d 1b 6f 79 bd
       -0.051678646 -0.07686961 0.072395384 -0.060896974
0003c0 ae 0d e1 3c 97 9d f0 bd 85 03 9b bd 22 49 df bc
       0.027472343 -0.11748808 -0.07569031 -0.027256552
0003d0 cb 8c 66 bd 20 9e 18 be 75 0a d7 3c 26 2a 20 bd
       -0.056286614 -0.1490407 0.026250103 -0.039102696
0003e0 0c f0 91 3d b6 f4 be bc 21 7a 3b bd 85 54 bc 3d
       0.071258634 -0.023310047 -0.045770768 0.09195808
0003f0 a3 dd a6 bd 28 45 e8 bd 44 4a a7 bc a2 fa 02 3d
       -0.081477426 -0.113413155 -0.020421155 0.031977303

bias f4 [64]
000000 62 46 df bd 07 be b8 3c 3d 28 ee bd 23 e8 84 bc
       -0.10902096 0.02255155 -0.116287686 -0.016223973
000010 ab 47 b4 bb 33 64 39 be 21 01 cc bd 53 b6 23 3c
       -0.0055017076 -0.18104629 -0.09961153 0.0099922
000020 c2 63 ee bd 58 22 fb bd 52 c0 e2 bd 8f 49 f6 bd
       -0.11640121 -0.1226241 -0.110718384 -0.12025749
000030 8a 0f 83 bd 90 65 0f bd eb da cd bd 97 ad db bd
       -0.06399448 -0.035008967 -0.10051521 -0.10726469
000040 70 e3 77 bd c9 92 6d be 63 d0 e6 bd 91 cd fc bd
       -0.060519636 -0.23200525 -0.11270215 -0.12343896
000050 09 24 ca bd 13 73 24 be 8b 7b 27 bd 4a 2d a1 bd
       -0.098701544 -0.16059522 -0.040889304 -0.07869966
000060 35 ba 80 bd 2d 1b f9 bd 90 ca 68 bd f9 28 0b bd
       -0.06285516 -0.121633865 -0.056833804 -0.03397462
000070 7c b0 a7 bd 1b 04 87 bc 7b 27 10 3d 60 64 91 bd
       -0.081879586 -0.01648145 0.0351939 -0.07099223
000080 ad ec 5f bb 38 27 eb bc 3a 6b 9a bd 89 ac 56 3c
       -0.003416817 -0.028705224 -0.07539983 0.013102659
000090 d4 9a 09 be 70 37 01 be c2 73 a0 bd 1b e9 21 be
       -0.13437968 -0.12618804 -0.07834579 -0.15811579
0000a0 03 4b 0e be 18 d5 7f bd 06 39 36 be fb 91 19 bc
       -0.13895802 -0.06245908 -0.1779519 -0.009373183
0000b0 64 80 27 ba 42 69 be bc cf 27 e3 bd 1c aa 15 be
       -0.0006389676 -0.02324355 -0.11091577 -0.14615673
0000c0 7d d7 2f be bc 6e 1f bd 5a 05 93 bd ed 0b 0c be
       -0.17172046 -0.038923964 -0.07178755 -0.13676424
0000d0 62 73 8a bc 28 fa 52 bd 45 c1 e9 bd a1 32 1a be
       -0.016900722 -0.0515081 -0.11413816 -0.15058376
0000e0 eb 6f 68 bd 49 15 5b 3c 65 d4 29 be 78 2c 4b be
       -0.05674736 0.013371774 -0.16584928 -0.19841182
0000f0 92 d2 4e bd a4 3b ed bd cc 06 04 be ad 1d 19 be
       -0.050493784 -0.11583641 -0.12893218 -0.14952727

weight f4 [256, 448]
000000 e2 2f dd bc 07 c4 d8 3c fb 2b 53 3d df a8 8b 3d
       -0.027000371 0.02646066 0.051555615 0.06819319
000010 d1 37 a8 3c 4c fc 87 bd 78 f3 a0 3c 33 0f 39 bd
       0.020534428 -0.06639919 0.019647345 -0.04518051
000020 b6 b8 78 bd fb 10 22 bc 63 35 c5 3d 3f 25 eb b8
       -0.06072303 -0.009891744 0.09629323 -0.00011212611
000030 5a b1 5d bd 3e ce 9c bc 3b a0 b9 bc cd 75 4a bd
       -0.054124214 -0.019141313 -0.022659412 -0.04942875
000040 f7 5a a7 bd cf 7b ff 3b f7 5b 2a bc 89 92 79 3d
       -0.08171647 0.0077967416 -0.010397903 0.060930762
000050 65 c8 f2 3c e8 4d 39 bc e0 4f 86 3d e6 03 80 3d
       0.029636571 -0.011310078 0.06558204 0.062507436
000060 32 b5 21 bd 52 97 37 3d a2 e0 6f 3d 1a 35 91 ba
       -0.039479442 0.044822045 0.058563836 -0.0011078448
000070 80 a5 8d bc b0 36 e2 bc 97 35 db bc 71 ac 3b 3d
       -0.01729083 -0.027613968 -0.026758952 0.04581875
000080 a5 2f d9 bd 56 84 2e ba 62 44 b5 3b 0e 49 5e 3d
       -0.106047906 -0.0006657293 0.0055318335 0.05426889
000090 b0 af a0 3c d9 49 85 bb 94 c5 2b 3d 54 61 9e bd
       0.019615024 -0.004067641 0.041936472 -0.077334076
0000a0 84 79 ca 3c d3 5a a3 bc cc b2 07 3d b8 2d 8d bd
       0.024716146 -0.01994077 0.0331295 -0.06893486
0000b0 9b dc a1 bc 89 76 95 bc b5 5d 4a bd ea cd 21 3d
       -0.019758513 -0.018244999 -0.049405772 0.039503016
0000c0 81 72 7c 3d a2 cc 97 3d f2 1b 9d bc 0a 84 05 bd
       0.061632637 0.074120775 -0.019178364 -0.032596625
0000d0 51 ef ce bc 6d 55 46 bd 1e 0f 83 3c d9 4d 63 bd
       -0.0252606 -0.048421312 0.01599842 -0.055494163
0000e0 7c b7 47 bd 1a 61 df 3b 97 9c 56 3d 24 12 65 bd
       -0.04875897 0.0068169953 0.05239543 -0.055925503
0000f0 cb 03 cd bc 91 43 13 bd a2 31 52 3a 10 c6 85 3c
       -0.025026223 -0.03595311 0.000801826 0.016329795
000100 5a 1a 79 bd 0d dd 5c 3d b5 d6 11 bb 5f 9f 4d bd
       -0.060816146 0.053921748 -0.002225322 -0.050200816
000110 00 1f 3e bb 0a 80 49 bd f3 de 3d bd a3 1c 66 bd
       -0.0029010177 -0.049194373 -0.0463552 -0.056179654
000120 04 ad 17 3d 89 c2 34 bd 20 41 ff bb ea 99 ce 3c
       0.037030235 -0.044130836 -0.007789746 0.025219876
000130 55 28 e2 bd db 9b 97 b9 27 29 85 3d f8 33 0b be
       -0.11042849 -0.00028917086 0.0650199 -0.13594043
000140 c1 94 97 bd e3 54 5c 3d 58 54 68 3d bc 6d d0 bd
       -0.074014194 0.05379189 0.05672106 -0.1017718
000150 1d da 46 bb 6f c4 0a 3d 36 3f 26 bd 1f 8b af 3d
       -0.0030342408 0.03387874 -0.040587626 0.08571457
000160 95 31 eb 3c ba 3e df ba 5b 27 2a bd 51 3d a2 3d
       0.028710166 -0.0017032244 -0.04154144 0.079218514
000170 2d c5 9d bd 20 c4 7c bd 15 be 4a 3d c4 0c 82 3c
       -0.07703624 -0.061710477 0.049497683 0.015875228
000180 a1 94 80 3d f5 9b 8f 3d f7 bb d9 3d da 4d c0 bd
       0.06278349 0.07012168 0.106315546 -0.09389849
000190 3c a8 82 3c 96 6e d5 3c b0 dc 88 3c 72 83 b1 bd
       0.015949361 0.026053708 0.016706795 -0.08667649
0001a0 42 e1 61 3b 7a 86 0f 3c 08 47 28 bd dd d8 d4 3c
       0.003446654 0.008760089 -0.041083366 0.025982315
0001b0 42 ac af 3c 38 dc d8 3b 2d 1f 18 bb da 0d 3c 3c
       0.021444444 0.006618049 -0.0023211942 0.011477912
0001c0 3e 77 18 bd 9e d2 c2 bc 1d fa 27 bc 76 46 9c bd
       -0.037223093 -0.02378207 -0.010252503 -0.07630627
0001d0 7d 66 e4 bc 76 55 69 bd 91 bc e8 3d 20 56 c6 3b
       -0.027880901 -0.056966268 0.11364091 0.0060527474
0001e0 06 8d c7 3c 41 da 18 bd 3b 41 ee bc 62 34 91 bd
       0.024359237 -0.03731752 -0.029083839 -0.07090069
0001f0 9f 5f 2a bd 0c bb 85 bb 19 35 ba 3c b5 bc 26 bc
       -0.041595098 -0.0040811356 0.022730397 -0.010176827
000200 ea 39 4b bd 30 75 45 bd 79 73 54 bc 9f 58 0e 3c
       -0.049615778 -0.04820746 -0.012966984 0.008688121
000210 50 a6 7a 3d 98 53 90 3c b7 de 03 3d 4f cd 3c bd
       0.061193764 0.017617986 0.03219482 -0.046094235
000220 2c cc 81 bd 59 f4 b2 3c 65 dc 04 bd 76 b1 01 3d
       -0.06337771 0.02184503 -0.032436747 0.03166338
000230 3c 6d 33 bd a0 d1 2c bd e7 7f c6 bc 0d cc 9a ba
       -0.043805346 -0.0421921 -0.02423091 -0.001181008
000240 d0 4f 8a bd 4b 4b 80 3d 70 3d 3b 3d 0b 26 40 bc
       -0.06753504 0.06264361 0.04571289 -0.01172782
000250 72 3b f4 3c a9 ee b1 3c 61 06 c5 ba bd 4a 86 3a
       0.029813502 0.021720247 -0.0015031808 0.0010245662
000260 7d c7 86 bc 4b 68 65 bd 24 b4 87 3d 47 b7 fe 3c
       -0.016452545 -0.056007665 0.06626156 0.031093253
000270 f7 d9 cb 3c 0c 98 f0 bc e3 12 aa 3c 61 af 8a bc
       0.024884207 -0.029369377 0.020760959 -0.01692933
000280 fe a6 9e bd 8b 3a 6a bd 15 0b 7c bc 9d 46 b6 3c
       -0.07746695 -0.057184737 -0.015383502 0.022250468
000290 fb 19 9f 3d 3c 7c 83 3c a3 3b c0 bc 93 37 ba 3b
       0.07768627 0.01605045 -0.023465937 0.0056828945
0002a0 03 7e 2a ba 45 93 22 3d 7e 26 b2 3c 81 cc 46 bd
       -0.00065037626 0.03969123 0.02174687 -0.048534874
0002b0 ed 34 34 3c a8 a5 04 3d c9 9a 8e 3d 4c 6b 19 bd
       0.010998947 0.032384545 0.06963117 -0.037455842
0002c0 2d 18 30 bd 76 51 bd 3a f7 f1 06 bd 73 cb 03 3b
       -0.042991806 0.0014443833 -0.0329456 0.002011028
0002d0 b0 7d 98 bc b0 32 48 bc ab d4 5a 3d 68 e9 4a bb
       -0.01861462 -0.012219116 0.053425472 -0.0030961875
0002e0 61 d4 0b 3d c5 84 cb 3c 53 02 88 3d 6a fb 65 3d
       0.034138087 0.024843583 0.06641068 0.05614797
0002f0 cb 8b c9 bd 09 46 1f 3d f7 2b 86 bc 2f 46 74 3a
       -0.098411165 0.03888515 -0.016378386 0.00093183195
000300 5f 2b 11 3d 98 df 10 bc f6 6e ef bc d0 7b b4 bc
       0.035441753 -0.008842371 -0.029227715 -0.022031695
000310 0d b3 a0 3d 69 00 9a bd 1f a2 91 39 91 e0 bf bc
       0.07846651 -0.075196095 0.00027777345 -0.023422511
000320 2c e5 06 bd 2a 6a 97 3c 76 c0 b8 bd 5a 8b 96 bd
       -0.0329334 0.01848324 -0.09021084 -0.07350798
000330 12 ed 92 3d fb d2 18 bd 15 2f 02 bd f8 ca ac bc
       0.07174124 -0.03731058 -0.031783182 -0.021092877
000340 08 28 de bd 36 1b 7c 3c b2 f8 99 3b 43 b9 28 bd
       -0.10847479 0.015387347 0.0046988362 -0.041192304
000350 e3 aa 46 bc 5e 2d 3f bd 67 eb f7 bd c1 1d 8b bc
       -0.0121257035 -0.046674125 -0.12105446 -0.016981961
000360 d7 85 5a 3d 18 b2 88 3d 7b 6b 34 3b d5 e1 21 3d
       0.053350296 0.06674594 0.0027529884 0.03952201
000370 04 f4 0e 3d f3 36 b3 bc b7 d0 4e bb 0d e6 89 bc
       0.03490068 -0.021876788 -0.003155751 -0.01683333
000380 b0 b2 72 bd e4 ee e1 3c a6 4d 25 3d ea ca 91 bd
       -0.05925244 0.027579732 0.040357254 -0.07118781
000390 26 3e c5 bd d7 f7 9f bd 17 76 d8 bc 7a 54 10 bd
       -0.096309945 -0.078109436 -0.026423497 -0.035236813
0003a0 e3 e5 2d 3a 25 02 b2 3c 05 01 d6 bc 29 2f 94 bb
       0.0006633682 0.021729538 -0.026123533 -0.0045222235
0003b0 8f b3 91 3d 4a cc e1 3b 6a ed 99 3d 40 1b 3c 3c
       0.07114326 0.006890808 0.07515986 0.011481106
0003c0 ab e5 c0 bd 65 1a d7 bc 64 ac e6 bc 2d ee f9 3c
       -0.09418806 -0.026257703 -0.028158374 0.030509079
0003d0 ef 0f 37 3d ce 42 4f 3d ab 2d d0 3d 28 c5 92 3d
       0.04469293 0.05060082 0.101649605 0.07166511
0003e0 e9 0b e7 3c b0 74 96 bd 90 d6 36 bd ff 6d 57 3c
       0.028203921 -0.07346475 -0.044638216 0.013148784
0003f0 b0 d5 b8 3c e0 52 99 bc 8b f8 fc bc 4b 70 8a bc
       0.022562832 -0.018716276 -0.030880233 -0.016899249

bias f4 [256]
000000 72 1b 2d bd 81 01 35 bd 89 88 3f 3d 62 6e 97 bd
       -0.042262502 -0.044190887 0.04676107 -0.07394101
000010 c3 27 cd bd e1 fb 3f be c4 fc 32 bd d0 6d a2 bc
       -0.100173496 -0.18748428 -0.043698087 -0.019827753
000020 a2 ad 74 bc b7 2d 18 bd ed a1 ce bd aa 65 03 3d
       -0.014933975 -0.037152972 -0.10089479 0.032079376
000030 a1 78 94 ba 96 0c ac bd f3 c9 02 bd ba ac db bc
       -0.0011327454 -0.08400838 -0.031930875 -0.02681576
000040 db 98 b6 bd 7b 2a 85 bd 9c bc 93 bc 4c 53 05 be
       -0.089158736 -0.06502243 -0.018034272 -0.13020056
000050 60 03 e7 bd 67 a9 f3 3c 83 cd d8 bd 78 f8 dc bb
       -0.112799406 0.029743863 -0.10586073 -0.006743487
000060 fa 93 79 bd 22 08 3b bc 1f a2 e0 bd f1 ba da bc
       -0.060932137 -0.011415513 -0.10968422 -0.026700469
000070 bf d7 c2 bd 20 ee 1c 3d 69 5c 09 be 55 93 08 be
       -0.095138066 0.03831303 -0.13414158 -0.13337453
000080 f7 d4 bf bd 83 0a 5d 3c 2f 36 5a bc bb 30 bf bd
       -0.09366792 0.013491276 -0.013318582 -0.093354665
000090 3d 3c a4 bd 35 71 80 3c af 50 0f bc cd 5d 37 be
       -0.08019302 0.015678981 -0.008747264 -0.17906876
0000a0 eb ea 07 be 92 7b 82 bd 89 61 bb bd 63 38 c2 bc
       -0.13273208 -0.063712254 -0.09149463 -0.023708528
0000b0 40 d8 66 bd 2a f4 82 bc bd f7 c0 bd 8b e5 b1 bd
       -0.056358576 -0.015985567 -0.09422252 -0.0868636
0000c0 94 a4 9b bd 66 45 f8 3c f0 68 43 bd 06 7c e8 bd
       -0.0759975 0.03030653 -0.047707498 -0.113517806
0000d0 56 e6 97 bd 5f 12 ab bd 9c cf ac bd cb 53 12 bc
       -0.0741698 -0.083531134 -0.08438036 -0.008931111
0000e0 fe 2c c7 bd da 73 90 bd a4 b8 be 3c 36 c6 ea bd
       -0.097253785 -0.07053347 0.023281403 -0.11463587
0000f0 bc d3 ad bb 25 ea 7c 3c 3d 1b c6 bd 70 26 7b bd
       -0.0053047817 0.015436684 -0.09673164 -0.061315954
000100 f8 c1 77 3c 0b b6 0b bc dd 45 06 bd b0 03 28 bc
       0.015121929 -0.008527289 -0.03278147 -0.010254785
000110 0e 09 ec bd f5 f6 0a bd 4e c7 ce bd 52 da 67 bd
       -0.115251645 -0.033926923 -0.10096608 -0.05660469
000120 6f 16 5d bd c4 ee 19 bd 72 2b 70 3c 51 d7 d5 bd
       -0.053976472 -0.03758122 0.014658796 -0.10441459
000130 91 06 a8 bd eb 3a 59 bd 6b 13 97 bd f5 1a c1 bd
       -0.082043774 -0.053034704 -0.073767506 -0.0942897
000140 51 9d 9d bd 5c a9 39 bc b9 e9 07 be 8a 86 ac bd
       -0.07696021 -0.011331882 -0.13272752 -0.08424099
000150 aa 81 d1 bd a7 72 d3 bd 62 d7 00 be 08 70 c5 bd
       -0.102298096 -0.103246026 -0.12582162 -0.09640509
000160 8e f7 78 bd 0b 82 62 bc 08 2a 46 bd 13 80 67 3d
       -0.06078296 -0.01382495 -0.048379928 0.056518625
000170 33 9b 8b bc 33 be 38 bd ae e2 0f be 24 2f 76 bd
       -0.017041778 -0.045103263 -0.14051315 -0.06010355
000180 d2 35 09 be 3a 93 e5 bd c8 8d 66 bc 2f 61 10 bd
       -0.13399437 -0.11209722 -0.014071889 -0.03524893
000190 7c 58 2a bd 28 60 0e bd dd a0 d7 bd 3d 12 01 be
       -0.04158829 -0.03475967 -0.10528729 -0.12604614
0001a0 24 2a c3 bd b6 b9 81 bd d5 14 36 bc bf 7a a2 bd
       -0.09529522 -0.0633425 -0.011113365 -0.07933568
0001b0 9f 8b 0e 3c 51 02 a0 bd e4 c1 4b bd 7a 9e e5 3b
       0.00870028 -0.07812942 -0.049745455 0.0070074173
0001c0 94 3b 00 be 2a 01 cc bc a3 78 71 bd ac a2 8d bd
       -0.12522727 -0.024902899 -0.05895294 -0.06915793
0001d0 ca 2a 30 3d dc eb d4 bc fa 30 1e be e7 79 45 bd
       0.043009557 -0.025991373 -0.1544837 -0.04821196
0001e0 96 98 59 3d 5e 80 68 3b 24 46 94 3d b6 fa 08 be
       0.053124033 0.0035476903 0.07239941 -0.13376889
0001f0 b3 ac 46 bd 26 23 82 bd b8 68 3f 3d 57 62 8c bd
       -0.048504543 -0.0635436 0.046730727 -0.06854694
000200 75 44 ff 3c a4 17 e7 bd 1c 51 b7 3b a2 ee 21 bd
       0.031160573 -0.11283806 0.005594386 -0.03953422
000210 8d a7 0c be 8b d3 09 bd 37 ab a0 bd dd 23 de bd
       -0.1373579 -0.03364901 -0.07845157 -0.10846684
000220 80 26 3d bd 4e 20 9c bd 28 b3 83 bd c5 55 03 bd
       -0.046179295 -0.07623349 -0.06430656 -0.032064218
000230 ff 32 05 be 2a 00 46 bd ea 01 65 3c 2a 39 01 be
       -0.13007735 -0.04834 0.013977507 -0.12619463
000240 f3 e9 09 be 8e c3 b9 bd 94 a1 3b 3d f2 cb b7 bc
       -0.13468151 -0.09070502 0.04580839 -0.022436116
000250 dd 27 13 be 5f bf 2b bc e0 da 25 be 4d 5a 8f bd
       -0.14370675 -0.010482638 -0.16196775 -0.069996454
000260 f1 17 b1 bd 10 76 ef bd 5b ca f3 bd 88 a3 27 bc
       -0.086471446 -0.116924405 -0.119038306 -0.01023186
000270 3b 50 bc bd ea e2 1a be 41 34 e3 bd 5e 33 67 bc
       -0.0919499 -0.15125623 -0.11093951 -0.014111368
000280 f6 47 d2 bd 96 04 39 bd fb 98 9a bc b5 0e 34 3d
       -0.10267632 -0.04517039 -0.018871775 0.04395934
000290 e0 fd 8b bc b5 0e 31 bd ec aa a8 bd 00 60 8d bd
       -0.01708883 -0.043226916 -0.08235726 -0.06903076
0002a0 7b d9 ac bd 14 67 99 bd f4 f2 c1 bd c8 2a bc bd
       -0.084399186 -0.07490364 -0.09470168 -0.091878474
0002b0 6b 23 1e be 95 6c 1b bd 6e 22 85 3c e6 4c 0a 3d
       -0.15443198 -0.03794535 0.016251769 0.033764742
0002c0 52 a7 e1 bd 78 9f 8a bd 1f 03 a8 bd 5e 5c 99 bd
       -0.11018242 -0.067686975 -0.0820372 -0.07488321
0002d0 1d 6f 86 3d 12 1f 13 bd a9 46 81 3d 07 11 e1 bd
       0.06564162 -0.035918303 0.063123055 -0.10989576
0002e0 92 55 96 bd 5b d5 da bd 14 a4 08 be 45 94 6c bd
       -0.0734054 -0.106852256 -0.13343841 -0.05775859
0002f0 b5 db 64 bd 41 49 c1 bd a5 df e0 bc b2 0d 2b 3c
       -0.05587359 -0.094378 -0.027450392 0.010440277
000300 24 d3 49 bc 4a bb e4 bd e8 fe 56 bd 36 8a bc bd
       -0.012318406 -0.11168535 -0.05248919 -0.09206049
000310 d4 23 76 3d 37 1a 22 3d ae a9 c2 bd 08 09 f8 bc
       0.060092762 0.03957578 -0.0950502 -0.030277744
000320 bb 80 8b bd c9 95 c3 bd e6 4b b7 bd 07 a6 10 be
       -0.06811663 -0.095500536 -0.08950023 -0.14125834
000330 a9 e2 d8 3b 5b 2d 26 be 22 03 b7 3b d2 b1 12 be
       0.006618817 -0.16228239 0.0055850903 -0.14325646
000340 55 b4 d8 3c 5b 7a aa 3b 58 2d 83 bd f6 28 8e bd
       0.026453177 0.005202574 -0.06405133 -0.069414064
000350 c0 2a 37 3d bb 27 73 3d 04 de c3 bd 5f ea a7 bd
       0.044718504 0.05936406 -0.095638305 -0.081989996
000360 42 f4 c4 bc b5 9a b7 bd 39 2b 93 bc 0d a5 0f 3d
       -0.024042252 -0.08965055 -0.017964946 0.035069514
000370 8e c4 33 be af 55 62 3c 00 01 9e 3d 68 ce 11 bd
       -0.17555448 0.013814374 0.077150345 -0.035597235
000380 b6 03 64 bd 3f cb 8c bd 06 02 24 be 5f e7 c8 bc
       -0.0556676 -0.068747036 -0.16016397 -0.024524389
000390 7c 3f 8f bd a6 69 28 3d 47 da 89 3d e5 e8 f1 bd
       -0.069945306 0.04111638 0.06731086 -0.11811999
0003a0 f2 ee 50 3d 90 36 ad bd 44 7d bd bd db 7c 1d bd
       0.051009126 -0.084576726 -0.09252408 -0.03844915
0003b0 ba 22 8e 3d cf 34 0f 3d d8 07 36 bd e9 73 ad bd
       0.06940217 0.03496247 -0.044441074 -0.08469374
0003c0 6d 22 c5 bc 34 51 2a bd 19 07 50 bd 77 33 8f bd
       -0.024064267 -0.041581348 -0.05078802 -0.06992238
0003d0 0a d9 9d bc aa 89 3b bc c7 3e 4b bd 07 a3 cd bd
       -0.019268531 -0.011446396 -0.049620416 -0.100408606
0003e0 78 a3 3f 3d df d6 4a bd 99 3d 84 3c 7a 57 9c bc
       0.046786755 -0.049521323 0.016142653 -0.01908468
0003f0 4f 15 7c bc a4 02 20 be 76 43 d8 bd 4a a7 07 bd
       -0.01538594 -0.15626007 -0.10559742 -0.033118524

weight f4 [128, 256]
000000 14 c4 ed 3d 8c 83 27 be c8 ea 68 3d 52 f0 aa 3b
       0.116096646 -0.16358775 0.05686453 0.0052166367
000010 37 90 ef bc 8a 51 93 3c 14 64 a4 3c 81 8f dc 3d
       -0.029243572 0.017983217 0.020067252 0.10769559
000020 c4 c7 55 3d 6a 77 d6 bc 11 b3 c2 3d f8 fd 27 bd
       0.052192464 -0.026179988 0.095068105 -0.041013688
000030 8b db 7d 3d 25 d7 cc 3d 0f 30 8a 3a 27 5f 47 bd
       0.06197695 0.10001973 0.0010542887 -0.04867473
000040 11 5c 84 3c fa 1f d2 3d 3a 03 1e bd af 6e 4e bc
       0.016157182 0.10260005 -0.038577296 -0.012599631
000050 3e e1 ef 3d 5a 38 35 be 64 1e 09 3e 57 37 45 3d
       0.117128834 -0.17697278 0.133905 0.04814848
000060 73 0e df 3d 1e 20 9b 3d 50 de 2c 3d 53 d2 df bd
       0.10891428 0.07574485 0.0422042 -0.10928788
000070 02 1a 58 bd 7f c8 b1 3d 65 94 bf bd cd d0 db 3d
       -0.052759178 0.0868082 -0.09354476 0.10733185
000080 90 b8 41 3d 91 a2 8a bd 6e fd 9b bd 50 f1 1a 3d
       0.047295153 -0.06769288 -0.07616697 0.03782779
000090 22 17 18 3e e8 f8 d3 bd 2f d2 e0 3c bb f2 87 3d
       0.14852574 -0.103502095 0.027443973 0.06638094
0000a0 14 52 da 3c bd e2 84 3d d8 a5 71 3d df 7f 13 be
       0.026650466 0.064885594 0.05899605 -0.14404248
0000b0 f1 67 ce 3c 92 be a2 3d 4d 09 9d 3d 66 53 07 3e
       0.025196047 0.07946505 0.076677896 0.13215408
0000c0 96 c0 43 bc 66 64 af bd cd 80 93 3d df b9 37 3d
       -0.0119477715 -0.08564071 0.07202301 0.044854995
0000d0 d3 22 12 bc 65 c9 25 3c d9 ce a0 3d b0 15 c7 3c
       -0.008919436 0.010118817 0.07851953 0.024302334
0000e0 39 3e a1 bd be 95 07 bd 82 4a 02 3d 3e c7 5c bb
       -0.07873196 -0.03310179 0.031809337 -0.0033688094
0000f0 d7 db 26 bd 52 c2 53 be 0a 7d 99 3d 7c 45 ba 3d
       -0.040737 -0.20679596 0.074945524 0.09095284
000100 e2 fd c4 3d 05 fe 87 bd e9 21 43 3d bd 92 0f bd
       0.09618737 -0.06640247 0.04763976 -0.03505205
000110 a5 20 60 bc e9 8d 62 3c c9 54 98 3d 97 e9 1f 3d
       -0.013679658 0.013827779 0.074380465 0.039041128
000120 e6 c2 8a 3d 21 61 76 bb 22 5d 2d bd 61 01 25 3e
       0.06775455 -0.0037594514 -0.042325146 0.16113807
000130 e4 fe 2f bd 02 5a ed bc 77 d9 c8 bd c9 8b 4d bd
       -0.042967692 -0.028973583 -0.09807103 -0.050182138
000140 80 74 da 3d 00 6e 40 bd fe 5a 84 3c 42 55 6a bc
       0.10666752 -0.046979904 0.01615667 -0.014302554
000150 62 e0 7d 3d ea 09 86 ba 19 88 39 3d 52 94 87 3d
       0.061981566 -0.0010226343 0.04529581 0.06620087
000160 f3 d7 15 bd fb 6b e9 bd f9 88 a6 bc 94 ee 15 3d
       -0.0365829 -0.11397549 -0.020328986 0.03660448
000170 88 52 80 3c 37 08 90 3d 14 c8 00 bd 6d 7d f0 bb
       0.015664354 0.07032817 -0.03144081 -0.0073391707
000180 fc 59 88 bc a9 8b 26 3d 42 7c 21 be ac f7 ec 3b
       -0.01664447 0.040660534 -0.15770057 0.007231673
000190 89 41 e7 3c 59 30 28 3d 1a 96 53 3d cb 60 a8 3d
       0.028229492 0.041061733 0.05165682 0.08221587
0001a0 74 c6 0f bc a7 60 f3 3d 26 9d 6c bd ec c4 a7 bc
       -0.008775342 0.11883669 -0.057767056 -0.020479642
0001b0 94 9f 74 3b 3f 10 a1 3d 66 af f9 bd 09 e1 0c 3d
       0.0037326561 0.07864427 -0.12191658 0.034394298
0001c0 f9 c6 99 3a a3 56 5a 3d 82 74 28 bb ce 3b 23 3d
       0.0011732272 0.05330528 -0.002570421 0.039851956
0001d0 ad bd 89 3c 43 61 ba 3a 1e c9 11 3e eb 3c 0a 3d
       0.016814077 0.001421966 0.14236876 0.033749502
0001e0 80 7e 1c bd a7 91 1b ba f5 3c a0 bc 44 54 dc bc
       -0.038206577 -0.00059344847 -0.019560317 -0.02689565
0001f0 5f f5 8c bc 0e bc 30 bd f4 25 32 3c 65 ef 4d 3d
       -0.017206846 -0.043148093 0.010873307 0.050277133
000200 3b fb 13 3d 00 cd b9 3d ed a7 9c bc e9 bc 3f 3d
       0.036128264 0.09072304 -0.019123042 0.04681102
000210 1a 63 3a 3d a6 73 af bd 99 02 4e 3b 77 75 65 bd
       0.045504667 -0.0856698 0.0031434654 -0.056020226
000220 69 68 81 bc 7e 4d 75 3d 79 e0 7b bd ac ff 3a bc
       -0.015796857 0.059888355 -0.06149337 -0.011413496
000230 06 66 cc 3d 65 34 02 be 1c 6e 75 bd 9f d5 e2 3c
       0.09980397 -0.127153 -0.05991946 0.027689753
000240 36 19 c8 3d 97 8e 63 3c c9 79 e3 3c 25 39 90 3d
       0.097704336 0.013888977 0.027768033 0.070421495
000250 a6 e3 30 bc c0 cd e1 bd d6 72 7a 3d c9 91 51 3c
       -0.010796463 -0.11025572 0.061144672 0.012791106
000260 b2 02 81 3d a1 e8 be 3d f7 ad 41 3a 69 cd 93 3d
       0.06299342 0.09321714 0.00073882885 0.07216913
000270 11 a6 33 bd a2 02 14 3d 8e 41 43 3c 26 6d 8d 3d
       -0.043859545 0.036135323 0.011917485 0.06905584
000280 d8 54 f1 bc c2 d1 85 3d bd ca 2e be 52 d2 83 bb
       -0.029459402 0.06534149 -0.17069526 -0.004022875
000290 70 cd 6a 3c 28 51 c0 3c fa 68 f4 3c ce 26 97 3d
       0.014331207 0.023476198 0.029835213 0.07380448
0002a0 c7 23 41 3d e0 c0 73 3d 69 a4 90 3d a0 36 bc 3b
       0.04715326 0.05951011 0.07062609 0.0057438165
0002b0 ee 3d d0 3c 22 da e0 bc 4a e5 e9 bd 26 c3 8e bd
       0.025420155 -0.027447764 -0.114206865 -0.06970815
0002c0 c0 f3 98 bc ad a6 56 3c 26 91 88 3a f2 35 30 3d
       -0.018670917 0.013101262 0.0010419234 0.043020196
0002d0 a0 61 64 bd 43 f8 21 bd 14 2e 13 bd c8 98 a3 3d
       -0.055757165 -0.0395434 -0.035932615 0.07988125
0002e0 5e 7e 51 bd d4 3c df 3d c7 3a 2d 3d cb 4c cf 3c
       -0.051145904 0.10900274 0.042292383 0.025305172
0002f0 40 4e 3d 3d 2f 65 d0 bd 74 a2 b2 bd ed a0 cf bc
       0.046217203 -0.10175549 -0.08722392 -0.02534529
000300 a5 af 19 be 76 c6 59 3d e9 b7 be bd e2 0b 98 bd
       -0.1500841 0.053167783 -0.09312422 -0.074241415
000310 d7 a6 21 3c a1 81 f9 3c 6a 4f 59 bc dd 59 e0 3d
       0.009866438 0.03045732 -0.013263563 0.1095464
000320 f9 70 79 bd 88 84 96 3d 49 f2 59 bc cd 01 36 bd
       -0.060898755 0.07349497 -0.013302394 -0.04443531
000330 1c 59 95 3d e0 cf 1c ba 13 47 66 bc 15 76 a2 3c
       0.07292387 -0.00059819035 -0.014055031 0.019831697
000340 38 18 68 bd 19 63 0e be 7f 5a ea bd a1 c9 ef bc
       -0.05666372 -0.1390499 -0.11443042 -0.029270949
000350 cd c1 69 bd c8 b1 fd bd 93 80 b4 bd 52 6d d8 3c
       -0.05706959 -0.12387425 -0.08813586 0.026419315
000360 ef a1 12 be df a9 7e bd 48 f5 a9 bd aa 08 80 3d
       -0.14319585 -0.06217372 -0.08298737 0.062516525
000370 6c 93 b6 3d 61 0a 0f be c4 1a 8d 3c 23 22 d6 bd
       0.08914837 -0.13968803 0.017224677 -0.1045573
000380 b9 36 9f 3c 61 8e 5f 3d 03 a9 b6 bc c1 77 d3 3d
       0.019435273 0.054579142 -0.022297388 0.103255756
000390 d1 81 ff 3c 0f 1f 58 bd a0 9e be 3d 65 6e f8 bc
       0.031189831 -0.052763995 0.09307599 -0.030326078
0003a0 aa f5 8d 3d 63 ce c7 3c 5a 02 bf 3d 97 f3 58 3d
       0.06931622 0.024390405 0.093266204 0.05296668
0003b0 74 25 2d bd 42 b6 0e bd ad 84 ef bd f8 27 2c 3d
       -0.042272046 -0.034841783 -0.11695228 0.042030305
0003c0 40 00 17 bc 68 44 0c be 9a 08 66 3d 82 39 ea 3d
       -0.009216368 -0.1369797 0.056160547 0.1143675
0003d0 d4 d0 8e 3d 3d 08 99 3c 25 b3 9c 3c 18 20 67 bc
       0.069734246 0.018680686 0.019128392 -0.014106773
0003e0 86 f7 cc 3d 1e 12 15 3d ed 12 c7 bd 8c b9 a3 bc
       0.10008149 0.03639423 -0.09720407 -0.019985937
0003f0 79 27 db bd 66 78 0f 3e 98 0d 26 3d e5 d2 47 bc
       -0.10700888 0.14010772 0.040540308 -0.012196277

bias f4 [128]
000000 0b 7a 91 bd 23 e9 3c bd da db 3d 3d 05 ee ff bc
       -0.07103356 -0.046120774 0.046352245 -0.031241426
000010 fe e0 9e bd 1f e7 cb bc 7d a2 1a bd 4f cf 41 bd
       -0.077577576 -0.02489048 -0.037752617 -0.047316846
000020 e2 21 fd 3c 09 e9 d2 bc 68 e9 c4 bd 28 05 cc 3a
       0.030899946 -0.025745885 -0.09614831 0.0015565502
000030 47 52 26 bc a6 17 41 3c ff c6 fa bc ad dd 8f 3b
       -0.010151452 0.011785423 -0.030612467 0.0043904395
000040 e2 56 ca 3d 38 ab 44 bd 38 a7 c5 bd ea a4 8b 3d
       0.09879853 -0.04801485 -0.09651035 0.06818564
000050 b8 aa 45 3d c0 19 26 3a 96 19 2e bd 5e bb 17 bc
       0.048258513 0.00063362345 -0.04250487 -0.00926098
000060 ab a8 ab 3d 37 d9 42 3c 3f f6 25 bd 6e 6d ef 3d
       0.0838178 0.011892608 -0.04051804 0.11690794
000070 60 dd 3f 3d 70 0e 4b bd 2f 21 81 bc fd 00 0b bc
       0.04684198 -0.049574316 -0.015762893 -0.008484122
000080 1e 95 4c bd a6 dc e5 bc f0 99 a4 3d 38 24 c5 3d
       -0.049946897 -0.028059315 0.08037174 0.09626049
000090 8c c7 47 3d 5e 36 f4 3d 49 6c b3 bd 39 88 f8 3c
       0.048774287 0.11924432 -0.08760888 0.030338394
0000a0 50 e9 c6 bb bb 3c c4 3d 50 9a 99 bd ed 94 11 bd
       -0.0060702935 0.09581896 -0.07500136 -0.035542417
0000b0 c0 6b 4c bd 9b 12 86 bd 52 d2 7d bc 58 cc 62 3c
       -0.049907446 -0.065465175 -0.015492039 0.013842665
0000c0 74 15 94 bd f7 0c 2d 3d 1f 04 ba 3d 01 6d 64 3d
       -0.07230654 0.042248692 0.09082817 0.055768017
0000d0 8d 7f c9 bd f0 ff 3d bd f6 b0 84 3b 2a 1b 8d bd
       -0.098387815 -0.04638666 0.0040494157 -0.06889947
0000e0 45 5a 8d 3b 5b dc 1e bd 53 6a 85 3d f7 d0 6e 3a
       0.0043137395 -0.038784366 0.0651442 0.00091101177
0000f0 31 35 14 3d 45 c6 15 bd 5d 92 13 3d 87 cc 06 3d
       0.03618354 -0.036566038 0.036028255 0.032909896
000100 24 00 ce 3d 76 ac 6f 3d 13 50 f5 3b dd 2e 0e bb
       0.100586206 0.05851408 0.007486352 -0.0021695413
000110 28 8d 80 3c 9d 3e 41 3c 6b f0 04 bd 10 51 c4 bd
       0.015692309 0.011794713 -0.032455843 -0.09585774
000120 2c 00 e1 bc 95 71 01 bd 46 7d 30 bc 12 eb 4a 3d
       -0.027465902 -0.03160246 -0.010772055 0.049540587
000130 9f 38 74 3d 6c dc da bd ba 32 a0 bc 93 09 75 bd
       0.05962431 -0.106865734 -0.019555438 -0.059823584
000140 93 82 73 bd cc 11 3d 3d 05 30 0f bc 4c 02 af bc
       -0.059450697 0.04615955 -0.008739476 -0.0213634
000150 9d 02 a4 bd 7e 3d 0b 3e e1 4a 9f 3d 1e 80 6e bd
       -0.08008311 0.13597676 0.07777954 -0.05822765
000160 af 3e 0e bd 2e af 08 3c 49 b4 19 bd e5 57 7c 3d
       -0.03472775 0.008342547 -0.03752545 0.06160726
000170 60 2c 55 3c 5c ea a6 bd 4d 05 0f bc 97 10 9a 3d
       0.013011068 -0.08150169 -0.008729291 0.075226955
000180 db 0c 0b bd f8 0c a5 3d b4 b6 bc 3d ea 10 d3 3d
       -0.033947807 0.08059114 0.09214535 0.103059605
000190 fd de 76 3d f2 3e 7d bd 3d 07 37 3d df 17 62 bd
       0.060271252 -0.061827607 0.044684637 -0.055198546
0001a0 1e 73 87 3d 7e e1 18 3c b0 60 7e bd 7c 48 9e bd
       0.06613754 0.009331105 -0.062103927 -0.07728669
0001b0 87 b2 8c bb 08 e0 ad bd f2 69 f5 38 e5 4b 40 3c
       -0.004293743 -0.08489996 0.00011702244 0.011736845
0001c0 1e 88 90 bb 4e d1 73 3d 4d 21 3e 3d bb af 45 3d
       -0.0044107577 0.05952578 0.046418477 0.048263293
0001d0 2b 27 c7 3c 60 ec 05 3d 64 90 a2 3d 41 e3 bf bd
       0.024310669 0.032696128 0.079376966 -0.09369517
0001e0 78 c4 8a ba 4e 6b c5 3d 75 36 b1 3d e1 74 1f 3d
       -0.0010587117 0.09639607 0.08652965 0.038929824
0001f0 ff d7 dd 3c de 2f ef 3d 51 5a 9f 3d 1e dd c7 bd
       0.027080534 0.11679052 0.07780898 -0.09758972
